experiments/lenet_baseline/best_model.pt (torch, 502626 bytes, 20 tensors)

conv1.weight f4 [6, 3, 5, 5]
000000 be 4f 15 3e 40 93 39 bc 30 fb ba be 15 99 a9 3c
       0.145812 -0.011326611 -0.36519766 0.020702878
000010 7c 91 d4 3e 5c dc 8a bd ad 9d c5 be 00 f6 ad be
       0.41517246 -0.067803115 -0.3859686 -0.33976746
000020 99 e2 c8 be 4d 09 d4 3d c4 4d db be c9 0e 4f bf
       -0.3923538 0.103533365 -0.42832768 -0.80881935
000030 8f 60 67 bf 47 7f 17 bf 24 01 7f bd 7d b8 bf 3e
       -0.9038171 -0.59178585 -0.062256947 0.3744544
000040 64 36 93 bd 4f df 45 be 9e f1 a7 be 3d 84 06 bd
       -0.071881086 -0.19323467 -0.32801527 -0.032840956
000050 64 0e 1e 3f 2b 70 93 3e ca ba f2 3d ac 1a f4 3e
       0.6174071 0.28796515 0.118520334 0.476766
000060 60 e2 0c 3f 13 37 3b 3e 34 54 8f bd aa 44 03 3b
       0.5503292 0.18282728 -0.06998482 0.002002994
000070 5a 87 4e 3b 9d de 45 be 29 33 6b 3e 34 95 b6 3e
       0.0031513781 -0.19323201 0.22968735 0.35660708
000080 48 0d b7 3e fb 87 a0 3e 2d 9d 71 3d 8a 63 24 be
       0.3575232 0.31353745 0.058987785 -0.16053596
000090 f8 8c 1c 3c 7d b6 d9 bd a4 9d 09 bd c4 8c 90 be
       0.009555094 -0.1063051 -0.033597603 -0.28232396
0000a0 a7 2a 2a 3e 5b 50 22 3e ff d8 4b 3e fa 5d d5 3c
       0.16617833 0.15850966 0.19906996 0.026045788
0000b0 cc e6 d5 bd 3b af e9 be 58 42 98 be 6b 5e 89 bc
       -0.10444412 -0.45641503 -0.29738116 -0.016768655
0000c0 25 53 49 bd a2 7b aa be c5 8c d6 be b9 d9 c6 3c
       -0.04915156 -0.3329745 -0.41904274 0.02427374
0000d0 94 87 fb 3a f9 e0 4e 3e c7 9d af be 2a fe 43 3e
       0.0019190186 0.20203008 -0.34300062 0.19139925
0000e0 3c b6 1e 3f d6 9b 35 3f 57 17 1f 3f ba ea b1 3d
       0.6199682 0.7094091 0.6214499 0.08687349
0000f0 61 cc 28 be 93 53 82 3e c6 9a e2 3d db f5 be 3e
       -0.16484214 0.25454387 0.11064677 0.37296948
000100 1e b1 a5 bd 90 c8 20 3d 7e 66 e9 3e 7e 26 1b 3f
       -0.08090423 0.03925377 0.45586008 0.6060561
000110 e9 f7 df 3e bc 13 e1 3d 9f 9b 20 bf 6c c6 9d be
       0.43743828 0.10990092 -0.6273746 -0.30815446
000120 55 95 4c bd 8d 96 b4 bc dc 47 ac be f2 ee c9 bd
       -0.0499471 -0.022044444 -0.33648574 -0.09860028
000130 98 ff 89 3e 6d a1 fa 3d 59 21 25 be 39 fa 90 bc
       0.26952815 0.12237821 -0.16126002 -0.01769744
000140 e5 9c b0 be 0c a3 e2 bd cd f9 56 3f c2 99 67 be
       -0.344947 -0.11066255 0.83974916 -0.22617248
000150 22 51 9b be 8d 2b 5c 3e cb e4 8c bf 40 bc 16 be
       -0.30335337 0.21500988 -1.1007322 -0.14720249
000160 fb 7e 64 3f 10 12 d0 bd 60 48 28 3f c3 4a 4a 3e
       0.89256257 -0.10159695 0.65735435 0.19755082
000170 94 16 97 bf 05 5b 19 be 09 e2 f2 3d ff 3a ba be
       -1.1803765 -0.14976127 0.11859519 -0.36373135
000180 e9 6a 42 3f 18 6e 47 3e 4a 65 82 bd d9 ee 99 3d
       0.7594438 0.19475591 -0.063669756 0.0751626
000190 ec 0b a7 be e4 7c 8e 3d c7 c8 72 3d 3d 88 04 3e
       -0.32626283 0.06957415 0.059273507 0.12942596
0001a0 70 56 e0 3e 4d 6a bb be 01 9e a0 be 32 8e 46 3f
       0.43815947 -0.3660454 -0.31370547 0.7756072
0001b0 65 25 54 bc 45 97 e3 3d 8a 62 a7 3e 13 32 94 bf
       -0.012948369 0.11112837 0.32692367 -1.1577781
0001c0 eb 77 67 be e5 5e 58 3f bf 5e 9a 3e 00 01 43 3f
       -0.22604339 0.845198 0.3015041 0.761734
0001d0 56 ba 2c 3e 39 83 a8 bf c2 e8 ae be cd 1b 5b 3e
       0.16867957 -1.3165046 -0.34161955 0.21397324
0001e0 41 7e e4 be 6a ec 15 3f 08 96 1c bd fd b3 f4 be
       -0.44627574 0.58563864 -0.03822902 -0.4779357
0001f0 6b 58 64 be 4e 7b 5c bd 62 d4 ff bc 50 de 27 bc
       -0.22299354 -0.05382853 -0.031229202 -0.0102458745
000200 a4 f5 20 be 2e af 6e bd e9 c8 61 bd db 9a 25 be
       -0.15718704 -0.058272533 -0.055123243 -0.16172354
000210 5d af 1d 3f 47 5a 9b be e8 c7 81 be 6a 12 95 3e
       0.6159571 -0.30342314 -0.2534783 0.2911561
000220 a1 9b 89 bf 25 66 3d bd 83 ec 40 3f 79 58 92 bd
       -1.0750619 -0.04623999 0.7536089 -0.07145781
000230 d1 aa 26 3f f2 ca a1 3e 74 39 90 bf 98 d3 2c be
       0.65104395 0.31600147 -1.1267533 -0.16877592
000240 54 2f 54 3e 4d 1f 8c be 6f 46 76 3f 73 c4 d8 3e
       0.20721179 -0.2736763 0.96201223 0.4233738
000250 a1 d2 22 be b3 a1 62 be e8 36 f4 bd 3e 86 76 3d
       -0.15900661 -0.22131996 -0.11924535 0.060186617
000260 30 7e 8a 3e a6 0d 81 3d 98 b6 8d bc e2 f5 14 be
       0.27049398 0.06301431 -0.017298982 -0.14546922
000270 42 12 29 3e b0 df ee 3c d4 59 99 3d 88 54 64 be
       0.16510871 0.029159397 0.074878365 -0.22297871
000280 f0 33 95 be 97 f2 56 3f 37 ca 5f bf 74 02 c9 3e
       -0.29141188 0.8396391 -0.8741793 0.39259684
000290 49 f9 48 be 48 9c 16 be 8e 8c 7a 3f e2 3e cd bf
       -0.19626345 -0.14708054 0.9787072 -1.6034815
0002a0 3e 41 75 3f 85 8b 82 be a6 44 a1 3d 5a 66 b4 3e
       0.95802677 -0.2549707 0.07874422 0.35234338
0002b0 61 7b 76 bf 50 fb 49 3f da 1f 6b be e8 17 8e 3e
       -0.9628201 0.788991 -0.22961369 0.27752614
0002c0 6b 3b 06 be 11 43 71 be e1 34 06 be 48 9c 09 3e
       -0.13108604 -0.2356074 -0.13106109 0.13438523
0002d0 32 27 96 3e 1c dd 58 3c fc f6 ff be 18 61 a3 3c
       0.2932678 0.01323631 -0.49993122 0.019943759
0002e0 40 79 47 3e fd aa 27 3e f4 39 0b 3f e2 4a a9 bf
       0.19479847 0.1637382 0.54385304 -1.3225977
0002f0 fd 90 e6 3e c1 b3 60 3e 37 26 44 3e 4f 2b 49 3f
       0.45032492 0.2194357 0.19155203 0.7858171
000300 61 b3 ed bf 9c d7 8a 3f 82 ef 9f bd 61 6c 37 3e
       -1.8570367 1.0847049 -0.07809354 0.17912437
000310 0e a8 49 3e 1e 1d 9e bf 33 d4 52 3f 70 86 8d bd
       0.19693014 -1.2352636 0.8235504 -0.069104075
000320 0c 35 28 bd 89 72 26 be 73 59 3c 3d e7 7a c5 3c
       -0.041066214 -0.16254629 0.045983743 0.024106456
000330 f7 d4 4c bd 41 ad 33 be 32 48 37 3d 42 38 03 bd
       -0.050007787 -0.1754656 0.044746585 -0.032036074
000340 58 45 02 3e 48 12 d1 bc aa dc a3 be 88 bb 45 3f
       0.12721765 -0.025521412 -0.3200429 0.77239275
000350 22 09 57 bf 7e ae 26 3f 5c e5 2f be 9e 4e 9c be
       -0.8399831 0.65110004 -0.17177337 -0.3052873
000360 6f 42 6e 3f 01 ca b5 bf 29 1d 8f 3f b7 e4 9b be
       0.9307012 -1.4202272 1.1180774 -0.30447933
000370 ac fc 3d be ca a8 da 3e 32 d3 59 bf a4 7a 8b 3f
       -0.18553418 0.427069 -0.85087883 1.0896802
000380 91 7f e2 be ee 00 be 3d bb 45 79 be d7 ae b6 be
       -0.4423795 0.09277521 -0.24343006 -0.35680267
000390 2e 16 a8 3e 4c fa 82 3d 0c 62 b3 be 17 59 54 be
       0.32829422 0.063953966 -0.3503574 -0.2073711
0003a0 ab 4e 24 3f 29 95 1b 3f d2 9e 10 be 40 77 ae 3d
       0.6418254 0.60774475 -0.14123085 0.08518839
0003b0 f6 16 31 3f fb 8f 18 3f f8 b2 08 bf 55 20 69 be
       0.6917566 0.59594697 -0.53398085 -0.2276624
0003c0 9d 70 67 3e 35 9c 56 3d 4b 25 4a bf 6c 1e 02 bf
       0.22601552 0.052395064 -0.78963155 -0.5082767
0003d0 df 6d a8 3e 90 5b 40 3c 95 3b ad bd 94 91 57 be
       0.32896325 0.01174058 -0.0845863 -0.21051627
0003e0 37 59 ef 3d b5 8c 2f be ec 5f aa 3e ca c1 32 be
       0.11686938 -0.17143519 0.33276308 -0.17456737
0003f0 39 8b 75 be 12 d2 40 3e ed 35 ad 3d a7 61 d5 be
       -0.2397889 0.18830135 0.08457551 -0.41676065

conv1.bias f4 [6]
000000 7c a2 33 3e ed eb 16 bf a5 6e 01 bf 4f 36 41 bf
       0.17542452 -0.58953744 -0.50559455 -0.75473493
000010 1b a2 aa bf ad af 05 bf
       -1.3330721 -0.52221185

conv2.weight f4 [16, 6, 5, 5]
000000 dc 42 15 bd c1 10 a2 3d d2 5b de bb 6f 4b 7e bd
       -0.036440715 0.07913352 -0.006785848 -0.062083658
000010 8e 2b 2f be 32 84 07 bd c5 5c 07 3e 54 dd 36 3e
       -0.17106459 -0.033085056 0.13218983 0.17857867
000020 a9 ee 6e bd a6 ef 43 be a6 f1 00 be 9d af 65 3d
       -0.058333073 -0.19134387 -0.12592182 0.05607568
000030 5d d3 8d 3e 66 17 50 3e d3 a4 00 3e 5b d2 a8 be
       0.2770032 0.20321426 0.12562875 -0.32972988
000040 16 a1 9d be 62 fb 00 bb ce d3 8c 3e 23 7c 80 3e
       -0.3078696 -0.0019681086 0.27505344 0.2509471
000050 0f bf 49 bd e5 5e 07 be 33 c4 8e bd ca 59 c0 bd
       -0.049254473 -0.13219793 -0.06971016 -0.09392126
000060 33 78 73 3e 8f e3 10 3e 4a ba 59 3d 13 0f 8f 3c
       0.23776321 0.14149307 0.053156175 0.017463243
000070 6c cb 4f 3d a6 df 58 bd a4 1d 91 3e 29 dd 8d 3d
       0.050731108 -0.052947663 0.28342927 0.069269486
000080 e7 1f 55 3d 64 79 16 bb ca d6 64 bd 17 f3 85 3e
       0.052032378 -0.0022960538 -0.0558689 0.26162025
000090 50 7c d3 3d 1d 12 16 3e 05 65 06 3e 7d bd 4d bb
       0.10326445 0.14655347 0.13124473 -0.0031393461
0000a0 cd 95 d5 3e 89 c3 08 3e 70 2d 05 3e fa e2 a4 3a
       0.4171585 0.1335584 0.13005614 0.0012579851
0000b0 7d d0 12 be bb 57 81 3e 36 81 23 3e 22 43 6c 3e
       -0.14337344 0.25262246 0.15967259 0.23072484
0000c0 70 98 4e 3e 20 d7 55 3e 2b 92 7a bd e5 e7 66 3c
       0.20175338 0.20882845 -0.061174553 0.014093374
0000d0 83 e1 ce 3d 51 4d 72 3c 89 d7 1d 3c 03 53 05 be
       0.10101607 0.0147889415 0.009633907 -0.13019948
0000e0 ed 13 d2 bd be 68 8b bd 85 2e 9c 3d 66 cf d3 3d
       -0.10257707 -0.06807087 0.076260604 0.103422925
0000f0 a0 4a 21 be 15 b1 51 be 6b b9 4a be e2 52 0e bd
       -0.15751123 -0.20477708 -0.19797294 -0.034747012
000100 99 67 a4 3c bc 2b 36 be 72 f6 97 be 7d cf 9f be
       0.02006893 -0.17790121 -0.2968021 -0.31212988
000110 29 0f a4 be 32 b8 11 be a4 f0 4f be ba 1a de be
       -0.32042816 -0.14230421 -0.20306641 -0.43379766
000120 4a 73 e0 be b7 c2 e2 be 95 9d 93 be fa a1 db 3c
       -0.4383796 -0.4428918 -0.28831163 0.026810635
000130 f2 f8 6e bd fa 0f b3 bd 5f 17 2d 3c be fa 85 3d
       -0.05834288 -0.08743282 0.010564654 0.06541966
000140 17 6b 33 3d 30 c4 87 bd 0c 6b df bd a2 a2 33 bd
       0.0438033 -0.06629217 -0.109090894 -0.04385627
000150 a4 2b 5e 3d 10 ed 27 be 9e 2b 55 bd a1 7e 02 be
       0.054240838 -0.16399026 -0.05204355 -0.12743618
000160 50 59 1c be 45 f6 a3 bd fe 47 af be d2 4d 3c bd
       -0.15268445 -0.080059566 -0.34234613 -0.045972653
000170 0a 03 ba bc c2 47 cb bc 6b df 86 bd 3c 40 98 be
       -0.022706527 -0.02481449 -0.06585582 -0.29736507
000180 5f 87 79 be c0 5c f1 bd e4 bf 13 3e 1c a9 ce 3e
       -0.24368046 -0.11785269 0.14428669 0.40363395
000190 0e 2e 74 3c 9a c6 8b 3c 88 3b 84 bc 18 6b 04 bd
       0.014903558 0.017062474 -0.016141668 -0.032328695
0001a0 e2 b4 b4 3d 8d 8f f8 3d 7b 3a ee 3d 72 08 40 3d
       0.08823563 0.12136755 0.11632248 0.046883054
0001b0 14 32 ac bc 25 1b 60 3a b8 fa 12 3d c0 a5 d8 3d
       -0.021019973 0.0008548967 0.035883635 0.10578489
0001c0 0d d1 c2 3d 72 ff 61 3c 11 53 2a 3c 85 80 c5 3d
       0.095125295 0.013793813 0.010395781 0.09643654
0001d0 8d c9 bc 3e 57 11 6f 3e 23 bc ed 3d ea f9 a8 bd
       0.3687252 0.23346458 0.1160815 -0.08250792
0001e0 31 6b 0d bf 49 8c e8 3c 1c d5 bd 3e 23 1b c1 3e
       -0.55241686 0.028387206 0.37076652 0.37716016
0001f0 02 37 c7 bd 4c 4a b6 bd 46 ce 36 bc 8a cf 44 bc
       -0.09727289 -0.0890089 -0.011157578 -0.012012372
000200 40 3a 10 3d 89 cd a6 3d 67 7b 2f bc c8 56 f3 3b
       0.0352118 0.081446715 -0.010710574 0.0074261166
000210 65 31 92 bd 26 bf 98 bd 59 c1 0c bd 97 ec ac bd
       -0.071383275 -0.07458334 -0.03436408 -0.084435634
000220 bd ae 8c bd f9 c4 85 3d f5 45 af 3d c4 dd 04 3e
       -0.06869266 0.0653171 0.08558265 0.12975222
000230 06 4b 26 be 53 7b 63 bd b1 a4 05 3e 3e b0 05 3d
       -0.16239557 -0.055537533 0.13051106 0.03263878
000240 40 99 05 3d 9b 7f df be 86 a5 77 be b8 1d 14 bb
       0.032616854 -0.43652043 -0.24184236 -0.0022600722
000250 cc 10 d4 3d 38 cb c9 3e 84 bd 00 3e 34 b3 59 bd
       0.10354766 0.39412856 0.12572294 -0.053149417
000260 50 5e b4 bc a9 4b 91 3d d1 8c 91 bd 64 05 62 3e
       -0.022017628 0.07094509 -0.07106937 0.22072369
000270 b2 45 81 be c4 fb 68 be d9 68 46 be 90 2a c2 bd
       -0.25248486 -0.22752291 -0.19375934 -0.094807744
000280 9c 3a 91 3e fa b5 f2 3d 72 d0 37 3b 40 96 d3 bd
       0.28365028 0.118511155 0.0028047827 -0.10331392
000290 94 3f d8 bd d7 d3 e5 3e cf 9c 08 3e 58 4a c8 bd
       -0.105590016 0.44888183 0.13341068 -0.09779805
0002a0 e0 26 6d bd c2 1b 23 be 31 0a 52 3f 57 fd 50 3e
       -0.057898402 -0.15928558 0.820468 0.20409141
0002b0 54 5e 00 3e e9 7a 76 bd 79 25 9d bd 94 c6 3c bc
       0.12535983 -0.06017581 -0.07673163 -0.011521954
0002c0 ad 40 47 bd 14 47 3b bc 3a f2 06 3d 39 e9 be 3c
       -0.048645664 -0.011430521 0.03294585 0.023304569
0002d0 f0 b7 79 3d 06 08 6f 3d 04 86 6a bd 5f 24 c1 bd
       0.060966432 0.05835726 -0.057256714 -0.09430765
0002e0 28 f7 62 3c 32 57 d3 3c 92 5a 1c 3e 0a 80 00 3d
       0.013852872 0.025798414 0.15268925 0.031372108
0002f0 bb 6f 81 bc 69 36 06 3e ef b1 f7 bd 1c 1f 63 3c
       -0.015800348 0.13106693 -0.12094485 0.0138623975
000300 90 02 c2 3d 97 bf e5 3d 52 e7 3d 3e ac 57 06 bd
       0.09473145 0.112181835 0.18545273 -0.032798454
000310 37 09 c3 3d 68 f7 8e 3d 97 86 66 3e 43 41 33 3d
       0.09523242 0.06980783 0.2251228 0.04376341
000320 8c 93 dd bc 26 42 04 be 88 12 b6 bd 4b df bb bd
       -0.027047895 -0.12915859 -0.08890253 -0.09173449
000330 ac 98 10 3c ea e3 81 bd 1b d9 52 be cf 2e 1d be
       0.008825462 -0.06342299 -0.20590632 -0.15349887
000340 0b 69 40 bd d4 1b 3d bd 8b 68 23 be 4e be e7 bd
       -0.046975177 -0.046169117 -0.15957849 -0.113155946
000350 b5 87 7b bd 9a 5a d2 bd 09 60 c0 bc 87 e3 db bd
       -0.061408717 -0.10271187 -0.023483293 -0.10736757
000360 ba 3f 35 bb c6 f0 e0 bd 13 fb 03 be 6e eb c6 bd
       -0.0027656392 -0.10983424 -0.12888746 -0.097128734
000370 d4 7f 81 bd fa 34 cb bd 8e 53 cf bd 13 a2 bb bd
       -0.063232094 -0.09922214 -0.10123359 -0.091617726
000380 b2 5e e6 bd 13 c8 c4 bc a8 9e 8b 3d 17 03 5c 3c
       -0.112485304 -0.024021184 0.06817371 0.013428471
000390 99 5a 1e bb bc 68 03 3e 5d 2e a9 bc 7a 31 5e 3c
       -0.0024162887 0.12832922 -0.02065199 0.013561601
0003a0 c7 00 fe bd 60 c5 c7 3b 86 07 2c 3e 91 c7 21 bd
       -0.12402492 0.006096527 0.16799745 -0.039496962
0003b0 db f9 f0 bd ab 8b a1 bd 9e 82 19 3e 18 f5 ea 3d
       -0.11766406 -0.07887968 0.14991233 0.11472529
0003c0 81 2a 3d 3d 69 52 6a bd 9a 56 a8 3d 01 af 60 bc
       0.046183113 -0.0572075 0.08219643 -0.013713599
0003d0 a4 c3 90 bc a9 33 ea 3d 62 0d 89 3c 21 ee 0f 3e
       -0.017671414 0.11435635 0.016730014 0.14055683
0003e0 30 af 62 bc 39 24 2d be 1b c1 d7 3d ec 22 07 be
       -0.013835713 -0.16908349 0.10534879 -0.13196915
0003f0 fa 0e 1f bd 95 78 d1 bc 2e 89 3c 3c 09 34 c8 bd
       -0.038832642 -0.025570193 0.011507316 -0.0977555

conv2.bias f4 [16]
000000 1d 68 9f be 2a 2a 9f be 71 2d 04 3f 38 17 f1 3f
       -0.3113412 -0.31086856 0.5163184 1.8835211
000010 4b 0c 58 3f 32 84 02 3e d2 b6 a0 be 4a a2 58 3f
       0.8439376 0.12745741 -0.3138948 0.84622633
000020 09 60 95 bf 63 6f 5d 3f e9 27 dd 3e b0 e8 21 3f
       -1.1669933 0.8649809 0.43194512 0.6324568
000030 c6 d2 12 c0 aa a8 8d 3e 35 12 bb bd d0 9a 41 3f
       -2.2941146 0.27667743 -0.09134332 0.7562685

fc1.weight f4 [120, 400]
000000 f1 36 d2 bc 54 ec e4 3c ea 96 65 3d 33 ed df bc
       -0.025660964 0.027944721 0.056052126 -0.027334785
000010 bf ff 82 bc 61 be 28 b9 36 05 0a 3d c5 1b c1 3c
       -0.01599109 -0.0001609265 0.033696376 0.023572812
000020 8a b0 ad bc b9 f9 e1 bc 74 17 2b 3d d0 0a a2 3d
       -0.021202344 -0.027584897 0.041770414 0.079122186
000030 54 6b 03 3e e3 74 60 3d 90 36 dd 3d b4 f7 10 3d
       0.12833911 0.05479897 0.108014226 0.035392478
000040 14 0c 0d 3c 7f 48 a5 3d a4 73 c7 3c 63 9a 50 3e
       0.008608837 0.08070468 0.024347134 0.20371394
000050 c3 6b ef bc 33 17 96 3b 11 5f 12 3e 10 6b 1b 3e
       -0.02922619 0.0045804023 0.14294077 0.1517756
000060 1d e0 65 3e 9d e7 29 3d a3 42 87 3d 71 dc 7e 3d
       0.22448774 0.04148065 0.06604507 0.062221948
000070 dd 59 ab 3d 2b 49 96 3d ce b1 f2 3c 50 83 4b 3d
       0.083667494 0.073381744 0.0296258 0.049685776
000080 fa c6 9a 3d 46 5a 09 3a 35 1e 95 bc 47 79 77 bd
       0.07557483 0.0005239587 -0.01820288 -0.060418393
000090 b9 69 8f bc f3 5e 8e bc c9 30 44 3c 95 3a 77 bd
       -0.017506467 -0.01737926 0.011974522 -0.060358603
0000a0 91 02 e7 bd 1d 2b 06 be 48 b8 34 be 45 4f 09 be
       -0.112797864 -0.13102384 -0.17648423 -0.13409145
0000b0 ea 11 2b bd cb c0 79 3d 98 f2 a9 bd 99 24 c1 bd
       -0.04176513 0.060974877 -0.08298224 -0.094308086
0000c0 46 4a 2f bd f6 3b da bd 42 f9 de bd 6e 19 37 be
       -0.042795442 -0.10655968 -0.10887386 -0.17880794
0000d0 a0 b0 18 be f3 af 84 bd c2 ec 36 be bf 32 69 bd
       -0.14911127 -0.06478872 -0.17863753 -0.05693316
0000e0 0f 48 d8 bc 91 c3 80 bc b4 0d 8e bd 1d 83 e3 bd
       -0.026401548 -0.015718253 -0.069362074 -0.11108992
0000f0 dd 37 65 bd b6 88 2d bd 1d 68 b8 bc a2 20 fa 3b
       -0.05596148 -0.042366706 -0.022510583 0.0076332847
000100 73 be 32 3b 1c 21 89 3c e0 4a ec bb d3 a4 20 3d
       0.002727416 0.01673942 -0.0072110742 0.03921969
000110 23 fa b1 3d 69 0a 9b 3d 37 3d 88 3d da f7 6b bc
       0.08690288 0.07570345 0.06652301 -0.014402354
000120 b3 25 24 bd fb 83 58 3b cf 1e 3b bd f1 41 48 bd
       -0.040075015 0.003303765 -0.04568368 -0.04889101
000130 1d 26 bb bc 77 2a fd bc ec 3f 95 3c 19 19 de bc
       -0.022845322 -0.030904038 0.018218957 -0.027111577
000140 0c 3a 3b 3d fe 62 79 bd 33 b2 b2 bd c0 82 b2 bd
       0.045709655 -0.060885422 -0.08725395 -0.08716345
000150 c7 7a 72 bd 14 28 75 3c 9e 1b 49 bd 72 b7 be bd
       -0.05919912 0.014963169 -0.049098603 -0.09312333
000160 13 0d c2 bd f1 58 a2 bd 14 ab 55 3d 3a fe c6 bb
       -0.0947515 -0.079271205 0.052165106 -0.0060727866
000170 63 ef 6d bd de f6 e2 bc 05 03 9d bd 6c 1e 06 3d
       -0.058089625 -0.027705606 -0.076665916 0.032743856
000180 2e 2f cc bd c0 f3 01 bd 51 f6 08 bd 0c 66 f0 bd
       -0.09969936 -0.0317266 -0.03343803 -0.11738214
000190 18 f8 f8 bc 62 36 92 bd ca b6 d4 bd 33 1c 84 bd
       -0.030391738 -0.07139279 -0.10386427 -0.06450691
0001a0 27 18 ab bd ab f2 95 bd 12 39 e2 bd 7c c1 a1 bd
       -0.08354216 -0.07321676 -0.110460415 -0.07898232
0001b0 09 96 eb bd b1 04 8e bd 1c 8e 02 be bc 43 d8 bd
       -0.11503226 -0.069344886 -0.12749523 -0.10559794
0001c0 e3 d3 a6 bd 52 7c a5 bd 3d 4b 04 be bd 59 c0 bd
       -0.08145883 -0.08080353 -0.12919326 -0.09392116
0001d0 99 26 b4 bd ed ae 34 be 74 73 38 be bd b4 1e be
       -0.087964244 -0.17644854 -0.18012792 -0.15498634
0001e0 40 99 84 bd 91 3b e0 bd 05 cf 52 be 4c 4b 53 be
       -0.064745426 -0.109488614 -0.20586784 -0.20634192
0001f0 7f 88 c6 bd 63 c1 f4 bd 50 8f 53 bd 31 22 ca bb
       -0.09694003 -0.11950948 -0.051650345 -0.0061686267
000200 e6 30 48 3d 3f 06 c4 bb ff fc 89 bc a1 26 15 bd
       0.04887476 -0.00598219 -0.01684427 -0.036413793
000210 9a 82 73 ba c1 c9 fd bc 38 33 1d bd df e5 a9 bb
       -0.00092891755 -0.030979993 -0.038378924 -0.0051848735
000220 4e 6c 9f bc 23 17 89 bd 81 7a 04 3c 73 5c 08 bc
       -0.019460823 -0.06693866 0.008085848 -0.008322823
000230 0c 56 d8 3c aa 17 31 3d ed bc 77 bc 3c ff c0 bb
       0.026408218 0.04323546 -0.015120727 -0.0058898013
000240 92 7a 34 bd bb d7 76 3d d5 18 74 3d d6 66 2a bd
       -0.044062205 0.06026433 0.059593994 -0.04160198
000250 13 c2 86 bd 2b 55 bf bd b4 14 cd 3d 96 c6 98 3d
       -0.065799855 -0.093424164 0.100137144 0.07459752
000260 e7 cf 86 bc 26 97 18 3c f5 75 69 3d 95 c0 02 3d
       -0.016456557 0.00931338 0.05699726 0.03192194
000270 fc c1 85 3d 3d e0 53 3d 76 8a 86 bc 27 d8 22 3d
       0.0653114 0.051727522 -0.016423445 0.03975692
000280 94 d0 04 be 11 67 8e bd 86 f0 97 bd d7 ac 39 bd
       -0.12970191 -0.06953252 -0.07418923 -0.04533085
000290 60 7c 28 bd 4d 04 c7 bd 02 15 3d bd bb 2d 99 bd
       -0.04113424 -0.09717617 -0.046162613 -0.074794255
0002a0 11 98 7d bd 09 d9 c8 bb b8 a8 38 bd 13 1a 80 bd
       -0.0619126 -0.006129388 -0.045082778 -0.06254973
0002b0 3d 90 0b bd 52 20 39 bd d0 91 0a 3d bb 23 ca ba
       -0.034073103 -0.04519684 0.033830464 -0.0015422025
0002c0 ce 35 12 bc 41 0c 14 3d 06 4b 92 3d 36 f9 6c bc
       -0.008923961 0.0361445 0.07143216 -0.014463713
0002d0 36 49 59 3d 2d 1a 9e 3d 2d 2f ce 3c b9 3b 3d bc
       0.053048335 0.077198364 0.02516898 -0.0115498835
0002e0 d6 18 2a bd d5 d3 96 3d f2 a4 eb 3d d7 2d be 3d
       -0.04152759 0.073646225 0.1150607 0.09286087
0002f0 51 1a 26 3d bf 33 f1 3c 12 43 e3 3c 73 9a b7 bb
       0.04055244 0.02944362 0.027741943 -0.0056031286
000300 56 f3 a6 bc 7c 49 8d 3b 1b 50 14 3d c4 ab ce bd
       -0.020379703 0.0043117385 0.036209207 -0.100913554
000310 d4 77 7d bd 40 b5 2a bd a5 c4 14 bd d1 7b 04 bd
       -0.061881855 -0.04167676 -0.036320347 -0.032344643
000320 b7 79 4e 3c 64 15 ba 3d 10 f1 dc 3d 72 5f 68 3d
       0.012602261 0.09086111 0.107881665 0.05673165
000330 a7 da 6a bd e0 77 80 bd 76 6d 1b 3b 83 d0 86 3d
       -0.05733743 -0.06272864 0.0023716367 0.06582739
000340 da 4b 4b 3d 03 97 2d 3d ba 43 4b bd b9 26 c5 3c
       0.049632885 0.042380344 -0.049625136 0.024066316
000350 b3 ca af 3c d7 cb 64 3d 94 ea cb 3d 7d 8f 09 be
       0.02145896 0.05585846 0.099568516 -0.13433643
000360 e2 53 bb bd 6c 53 11 be ef 5e 7d bb 5b 97 09 3e
       -0.09146859 -0.14191979 -0.003866132 0.13436644
000370 39 18 4c be d7 d4 a1 bd d3 ad b9 bd ca c0 47 3d
       -0.19931115 -0.07901924 -0.090663575 0.048767842
000380 2b c5 28 3e 2f de 67 3c f1 18 19 3d f0 d2 90 bd
       0.16481464 0.014152094 0.0373773 -0.07071483
000390 34 3b 4c bd 75 67 4b bc 5a 09 a0 bd 58 07 54 bd
       -0.049861148 -0.012414803 -0.07814284 -0.051764816
0003a0 b6 af 0b bd a9 51 1d bd 47 1b 7f bc 79 63 8b 3d
       -0.034103118 -0.038407955 -0.015570468 0.06806082
0003b0 4b 26 d6 3c c3 74 4a bd 02 cb 3f 3d 23 36 cc 3c
       0.026141306 -0.04942776 0.046824463 0.024928158
0003c0 f0 e8 13 3e ed 25 bb 3d 75 3d f1 3d d4 4f c1 3d
       0.14444327 0.09138093 0.117793 0.09439054
0003d0 1e 5a 6b 3d a8 60 85 3d 06 c4 0d bd 95 3f 9f bc
       0.05745899 0.06512576 -0.03461077 -0.019439498
0003e0 8b 09 17 3d 83 08 d8 3c 6f dc 7f bd a6 b9 a7 bd
       0.036874335 0.026371246 -0.06246608 -0.081897065
0003f0 f3 9d 41 bd de c5 c7 bd a9 b4 3c be c7 7c 40 bd
       -0.047269773 -0.09754537 -0.18428291 -0.046993997

fc1.bias f4 [120]
000000 28 12 9b 3d 2f 9a 9a bd db 84 80 3d a8 b2 57 3e
       0.075718224 -0.075489394 0.0627534 0.21064246
000010 05 bb e7 3d 1d 3e da 3d fb 6a de 3b d7 2a 44 be
       0.11314968 0.106563784 0.0067876554 -0.19156967
000020 e2 73 7f bd 15 39 8a 3c b5 26 52 bd 80 30 e7 bc
       -0.062366374 0.016872922 -0.051306445 -0.028221369
000030 87 db 6c 3d 7b df fe bb 0a 2a ab 3d 77 7f 19 3d
       0.057826545 -0.007778106 0.08357628 0.037475076
000040 0d fa 8d 3d 2d e0 c7 bc fc 9a a1 3d c1 9c c8 3d
       0.06932459 -0.024398888 0.07890889 0.097955234
000050 59 da e9 3e f6 8e 09 3e d8 be 4c bd 44 f8 02 bd
       0.456744 0.13433442 -0.04998669 -0.031975046
000060 fa 1c db 3d 8d 42 ad bc 5d 1b 96 3c 9e 27 42 3c
       0.10698886 -0.021149898 0.018323595 0.011850266
000070 8d 98 c1 bc b8 3c 55 3d 45 cd 74 3d 88 02 66 3e
       -0.023632312 0.05205986 0.059766073 0.22461903
000080 82 8b 8a bd 1e 6d 0c 3e 7b bf a7 3d 28 75 0f be
       -0.0676489 0.137135 0.08190819 -0.14009535
000090 2d 68 4e bc 34 50 2d 3e 9d 34 be 3c be 9b 6e 3d
       -0.01259808 0.16925126 0.023218447 0.058253996
0000a0 e7 4b db bd 27 a9 f5 bc 8b 38 12 bc 01 2d 00 3c
       -0.107078366 -0.029987885 -0.008924614 0.00782323
0000b0 87 2f 78 bc 04 c0 1b 3e 1e ed bd 3d 68 de 4d 3e
       -0.01514805 0.15209967 0.09273742 0.20104373
0000c0 90 f5 77 be cf b8 ae 3d 60 0a 52 3d a0 01 aa 3d
       -0.24214768 0.08531343 0.051279426 0.08301091
0000d0 43 3e 30 3e 97 70 8d be e3 ea c4 3d 69 fd bf 3d
       0.17211251 -0.27624962 0.096151136 0.09374506
0000e0 13 b2 0d 3e 01 b1 87 3e 10 4c 20 3e bf 77 17 be
       0.13837461 0.2650223 0.15654016 -0.14791773
0000f0 ae a0 94 3e fe 8a 8e bd 01 1c 1a 3d 79 60 a5 bd
       0.2902884 -0.069601044 0.037624363 -0.08075041
000100 67 a1 cc 3d ef 02 ef bd 29 e6 60 3d e3 9b 4a 3e
       0.099917226 -0.116704814 0.054906998 0.19786029
000110 13 d6 2c 3d 61 ed 22 3c 6e 70 f8 3c d9 80 ab 3e
       0.042196345 0.009944291 0.030327048 0.3349674
000120 d4 82 a8 3d 65 3d 8c be b5 e4 f6 3b c2 95 f0 bd
       0.082280785 -0.2739059 0.007534588 -0.11747314
000130 6f 2c b7 3d 94 d7 e9 3c 7b 00 61 bd 9d 87 11 3e
       0.08944022 0.028545178 -0.0549321 0.14211889
000140 da 18 32 be b5 41 93 b9 c3 4e 39 3d 54 00 6d 3e
       -0.17392293 -0.0002808698 0.04524113 0.23144656
000150 10 11 b6 3c 20 1b f2 bd e8 17 08 3e 4e 47 18 3e
       0.022224933 -0.1182158 0.1329037 0.1487095
000160 e1 79 88 3e c7 a5 88 3d 00 d7 be 3b 71 4d e9 bd
       0.26655486 0.066722445 0.00582397 -0.11391724
000170 ad 2f ff bc 05 f4 a7 3e 6d fd 06 3e c7 eb cf bd
       -0.031150663 0.3280336 0.13182612 -0.10152393
000180 fe 27 db bd 29 7e 83 3d 2f a9 08 be bc 5b cb 3d
       -0.10700987 0.064205475 -0.13345788 0.09929606
000190 7c b9 c9 3c 54 96 a2 be 94 a9 49 3d f0 fd e6 3d
       0.024624579 -0.31755316 0.049233988 0.112789035
0001a0 0f 92 e1 3d 89 40 40 3d 74 06 b5 bd cc 5a ad 3c
       0.110141866 0.046936546 -0.088391215 0.02116146
0001b0 3c 38 b7 3d 23 cd aa 3b 7e 5f 27 3e f9 56 3c 3e
       0.08946273 0.0052124425 0.16345021 0.18392552
0001c0 9d 3e 49 bc 36 f8 32 bd ce 4d 09 3e b9 c1 72 bd
       -0.012282995 -0.043693744 0.13408586 -0.05926678
0001d0 d8 ff 21 be ab e1 28 3e bc 37 98 3d 90 bf 29 3e
       -0.15820253 0.16492335 0.074325055 0.16576982

fc2.weight f4 [84, 120]
000000 da 28 c8 3c 14 51 3a bd e5 2f ae bd 2b 37 90 bd
       0.024433542 -0.04548748 -0.08505229 -0.070417725
000010 7e ef 24 be a5 6c ac ba ed 34 37 bc c4 df 55 bd
       -0.16106984 -0.0013154937 -0.011182052 -0.052215353
000020 1d 92 5a 3d cb a6 3e bd b3 6c 26 3e 58 b7 98 bc
       0.053362 -0.046545785 0.16252403 -0.018642113
000030 25 aa 31 be fb 72 23 bd cb 1f 77 bc 30 89 9f bc
       -0.17350061 -0.039904576 -0.015083264 -0.019474596
000040 2c 0d 8d 3d 40 cc 1c bd 55 e3 fe 3d 11 06 01 3e
       0.06887278 -0.038280725 0.12445704 0.1259997
000050 99 fd 99 bd 41 8d d7 3a 83 43 c7 3a 7a c0 cd bd
       -0.07519073 0.0016445295 0.0015202615 -0.100464776
000060 ae d5 2a 3d 06 0a 9e bc a5 3c de bc 43 c6 db 3d
       0.041707687 -0.019291889 -0.027128527 0.10731175
000070 1e 3b 17 bd ba 70 33 3c ab 5b 26 3d 53 f6 d9 bd
       -0.036921613 0.010952169 0.040614765 -0.10642686
000080 74 df a7 bd 67 f1 da 3c 6c 6e 35 be 2c 26 2e 3d
       -0.08196917 0.026726438 -0.17717904 0.042516872
000090 3c 10 ea 39 36 d0 2f 3d 33 40 ee ba 8d 37 9d 3d
       0.00044644054 0.042923175 -0.0018177092 0.07676611
0000a0 db f8 57 3d e2 20 92 3d aa 7d 70 bd 35 9d 62 bd
       0.05272756 0.07135178 -0.058713593 -0.055325706
0000b0 69 35 68 bd 7c 9a 09 3e d2 1c 55 3d c7 9f a4 bd
       -0.05669156 0.13437837 0.05202944 -0.080382876
0000c0 2a fa 91 3d d5 1c 07 3d 35 c0 71 3d 30 29 c2 bc
       0.07127793 0.03298648 0.059021194 -0.02370128
0000d0 36 0b b5 3b fd ea 5f 3d b8 a4 3c 3d 0c 8d 84 bd
       0.005525018 0.05466746 0.046055526 -0.06472215
0000e0 c6 e5 b5 bd 22 1e 58 be 37 ee 9f bd 71 2a 97 bd
       -0.088817164 -0.21105245 -0.07809108 -0.07381142
0000f0 4c 46 9b 3d 2e 8f 9c ba af ad 0c 3e 37 25 0e bc
       0.075817674 -0.0011944526 0.1373813 -0.008675865
000100 e2 b7 8e 3c 74 62 3e 3d 02 e3 41 be 70 05 94 3b
       0.017421667 0.04648061 -0.18934253 0.0045172498
000110 7e fa d2 bc 5e 85 46 be 9c 27 b9 3c 74 ba 81 3d
       -0.02575421 -0.19386813 0.022601895 0.06334391
000120 d0 31 a0 3d 84 eb 08 bd 11 5b ad 3d d4 37 fd bc
       0.07822001 -0.03342773 0.08464635 -0.03091041
000130 61 09 05 bc 5b 68 83 bd c4 06 c2 bd 77 97 5e bb
       -0.008119912 -0.064163886 -0.09473947 -0.0033964792
000140 08 8f 72 bd 48 26 dd bd ff e5 f0 3c 9a 04 bc bc
       -0.059218436 -0.10798317 0.029406546 -0.022951413
000150 41 5d 2a 3d 61 9d 98 bc e8 81 3f 3e ed cf 11 be
       0.04159284 -0.018629732 0.18701899 -0.14239474
000160 08 c3 0c 3e 8e 62 3d bd 62 8e c7 bc da 99 15 3e
       0.13746274 -0.046236567 -0.024359886 0.14609471
000170 8a ee 84 bd 5c a7 23 be 5f 00 10 3c 2c 4b f3 3c
       -0.0649081 -0.15981811 0.008789151 0.02969893
000180 04 90 c5 3d a7 2e 04 bd fa ed 4c 3d 6b 29 98 3d
       0.096466094 -0.032271054 0.05003164 0.07429775
000190 ce c8 a8 bd 5a 59 6f 3d 40 26 d5 bd 44 9c 2e bc
       -0.082414255 0.05843482 -0.10407686 -0.010657374
0001a0 e3 f6 0e 3e 57 43 27 be 55 84 d6 bc 55 bc 90 bd
       0.13961367 -0.16334282 -0.026186148 -0.070671715
0001b0 12 56 ba 3d ec e9 4e 3d 30 02 a8 bc 2d 4d df 3a
       0.09098448 0.050516054 -0.020508856 0.001703655
0001c0 dd 5e 0e 3e 1a d0 03 bc 67 f3 ab bd b4 e7 23 bd
       0.13903375 -0.008045221 -0.08396035 -0.04001589
0001d0 e2 ab bb 3d c6 68 aa bd 42 e9 a8 3c 41 41 15 bd
       0.091636434 -0.08320765 0.020619038 -0.036439184
0001e0 b7 52 a4 3d 77 16 ec bd 07 7c 0a 3c 27 78 9f 3c
       0.08023589 -0.11527722 0.008452422 0.019466473
0001f0 d6 0b 04 be cc 22 05 3e 8c d0 fa 3d 22 e5 23 3e
       -0.1289514 0.13001555 0.122468084 0.16005376
000200 73 aa 12 bd 3c 94 2b 3d ba 29 b5 bd 5f 68 74 3e
       -0.035807084 0.041889414 -0.08845849 0.2386794
000210 29 63 43 bd 77 69 0c 3c ef 5d 03 3d b9 64 86 ba
       -0.04770199 0.008570067 0.032072004 -0.0010253406
000220 5e 74 ef bc c3 a4 9e 3d 9a b3 23 be 27 d9 94 bd
       -0.029230293 0.077462696 -0.15986481 -0.07267981
000230 d0 c2 66 bd 6b 65 88 3d a5 ca 99 3c 50 99 28 bd
       -0.05633813 0.06659969 0.018773386 -0.041161835
000240 fc 89 82 3d 60 fc 95 3d b7 08 29 3d cf c2 6d bd
       0.06373975 0.07323527 0.041268077 -0.058047112
000250 d3 9f 60 be fc 2e 6e 3b 92 97 4f 3e 6a a0 07 3e
       -0.21935968 0.0036343923 0.20272663 0.13244787
000260 00 49 92 bc ee 0f eb 3c aa d4 97 3b 06 01 06 be
       -0.017857075 0.02869412 0.004633506 -0.13086328
000270 fa 1b 5e 3c 6f a5 5f 3e ba c2 85 be 28 ce d8 bd
       0.013556475 0.21840452 -0.26125127 -0.10586196
000280 d7 d0 1b 3e e4 3c 44 3d 55 37 e5 3d b2 dc 02 bd
       0.15216385 0.047909632 0.11192194 -0.031948753
000290 1a 71 c9 bd cf e0 d2 3d 0b 38 03 be 73 ad 9e bd
       -0.098360255 0.10296785 -0.12814347 -0.077479266
0002a0 25 78 43 bd 7a 8e aa 3a 00 32 64 bd 2a 46 e1 3b
       -0.047722 0.0013012432 -0.055711746 0.0068748193
0002b0 c5 b6 5d 3d a6 fe 3c bd 0c a8 40 3d 0f 3b c6 3d
       0.05412938 -0.04614129 0.047035262 0.09679233
0002c0 84 87 4f be e7 51 17 bd 03 55 a2 3c f1 43 15 bc
       -0.20266539 -0.036943343 0.019815927 -0.009110437
0002d0 af f4 42 3c 19 1b 96 3d a6 39 08 bd 1a 53 84 bc
       0.011899157 0.07329387 -0.033258103 -0.016152907
0002e0 2c ee 13 3c 33 90 ae bd 62 e4 90 bd 88 5d 00 3e
       0.009028953 -0.085235976 -0.070748106 0.1253568
0002f0 dd dd 18 be c1 0c 2f 3c b4 20 36 bd b6 67 8d 3d
       -0.14928384 0.010684193 -0.044464782 0.06904547
000300 56 a5 f4 bd ea d2 04 bc ec 1e 77 bd 27 58 f5 bd
       -0.11945598 -0.008106926 -0.060332224 -0.11979704
000310 83 aa 7b be d5 8c ae bd c3 02 f8 bc 0f a3 1b be
       -0.24576764 -0.08522955 -0.030274754 -0.1519892
000320 8e 5d 9d bd 85 d1 6d bd 18 27 38 bd cb d7 bf bc
       -0.0768386 -0.05806114 -0.044959158 -0.023418328
000330 1f 82 0a bd 9d cc c5 bb 14 6b 23 be 5f c4 91 3d
       -0.0338155 -0.0060363547 -0.15958816 0.07117533
000340 c3 5d 99 3d 4f 01 0c be 32 b1 b2 bd 76 87 25 be
       0.07488587 -0.13672374 -0.087252036 -0.16164955
000350 5a 38 9e bd 62 06 1d 3d 54 52 81 bd ae 24 0c bd
       -0.07725592 0.038336165 -0.06314531 -0.034214668
000360 7e 8e a0 3d 41 1b e3 3d c2 7d 1f be aa fd 8a 3d
       0.07839678 0.11089183 -0.15575317 0.06786664
000370 d4 51 a4 bd 0f dd 4f be d3 69 1b bd bc c0 b3 3d
       -0.0802342 -0.20299171 -0.03794272 0.087769955
000380 b2 d3 d7 3c bd 63 98 3d 80 d6 55 be 44 d8 e5 bc
       0.026346061 0.074408986 -0.20882607 -0.028057225
000390 e0 a2 d9 bd dd 7e 8b bd 94 59 97 3d d1 32 1a 3d
       -0.10626769 -0.068113066 0.073901325 0.03764612
0003a0 ad b4 1d bd d8 df 41 bc e8 6e ff 3b 77 31 e6 3d
       -0.038502384 -0.011833154 0.0077952035 0.112399034
0003b0 f5 c7 93 bc c8 94 13 bd e7 e1 99 bd f6 ea 08 3e
       -0.018039683 -0.03603056 -0.075137906 0.1337088
0003c0 1c 6d 68 3c 36 6c c5 bc b7 12 46 bd 74 3c 1f 3d
       0.01418617 -0.02409945 -0.04835769 0.038876012
0003d0 1f f2 26 bd 17 53 81 3d ae 02 29 bc b2 e4 95 bc
       -0.04075825 0.06314676 -0.01031558 -0.018297527
0003e0 bb a4 b2 bb 0e 4c 83 3d 5d c8 22 3d 56 92 0d bd
       -0.0054517663 0.06410991 0.039741863 -0.034563385
0003f0 a3 09 d5 bd c6 85 05 bd be 63 a4 3d 9c a0 d7 bd
       -0.10402229 -0.03259828 0.08026837 -0.10528681

fc2.bias f4 [84]
000000 d6 1c a9 bd 1a a4 30 3e dc 9b a6 3c 87 7a a8 3d
       -0.08257453 0.172501 0.020337991 0.08226495
000010 cd f9 99 3d 60 29 dd 3e 9d b1 48 be 86 9f 7c 3d
       0.07518349 0.4319563 -0.19599004 0.06167557
000020 1e 3f 08 3e 98 09 0f 3e c8 e5 c1 3c c3 71 4f 3c
       0.13305327 0.13968503 0.023669139 0.0126614
000030 52 40 01 3f cb f4 fc bc 40 b3 5b 3d e1 a3 9e 3e
       0.5048877 -0.030878445 0.053637743 0.30984405
000040 b9 74 c6 3e 4d ff 01 3f 1e 1e 11 3d 0c 28 23 3f
       0.38760927 0.50780183 0.035429113 0.6373298
000050 4b 49 c2 3c 20 0b 56 3e d6 bf 8c 3e 6d 9b d7 3d
       0.02371659 0.20902681 0.2749011 0.10527692
000060 ed f1 5f 3e 56 25 d6 3d 2e d8 8f 3d c0 31 eb 3d
       0.21869631 0.1045634 0.07023655 0.114840984
000070 f2 92 bc 3e 06 1f d7 3e 2f d7 26 be c5 a0 86 3c
       0.3683086 0.42015857 -0.16293024 0.016434083
000080 a8 b3 c2 3e 6a 25 99 bc 26 27 81 3e 4e be 5b 3e
       0.38027692 -0.018694598 0.2522518 0.21459314
000090 5b f8 0a 3e 1b 5e c0 3d 34 4b c2 3e 82 98 33 3e
       0.13571303 0.09392949 0.37948 0.17538646
0000a0 6c 5e 4f 3d ad 40 1c 3d 5a 64 81 be 46 06 07 3f
       0.050627157 0.038147617 -0.25271875 0.5274395
0000b0 b3 d5 4e 3f c2 31 3c 3e 06 8d ae 3d 2e e2 ff 3e
       0.8079483 0.18378356 0.08522992 0.4997725
0000c0 bd 27 09 bc fa 81 71 3e 29 c1 04 be 9d 22 bf 3d
       -0.008371291 0.23584738 -0.1296431 0.09332774
0000d0 0e 47 a7 bd 1d 6f b7 bd 49 09 1b 3f f8 f8 d3 bd
       -0.081678495 -0.0895674 0.60561043 -0.103502214
0000e0 f3 a1 6a bc 1a 08 13 3e 34 a1 12 3f 7d 2a 87 3e
       -0.014320838 0.14358559 0.57277226 0.26399603
0000f0 64 57 ff 3d 17 81 d6 3e ac 1e 4d 3f 60 ed 05 3f
       0.1246784 0.41895363 0.80124927 0.5231533
000100 a9 97 07 be ea 9b 48 3d 9c fe 0a 3e 8d 1b e3 bd
       -0.13241448 0.048976816 0.13573688 -0.11089239
000110 86 5e 7b be 41 77 c2 3e 23 16 3f 3e a3 f4 19 3e
       -0.24547777 0.3798161 0.18660788 0.15034728
000120 68 2c e5 bc eb 0c 7a bd a7 98 cd bd 5f b7 b7 3e
       -0.027975276 -0.061047476 -0.10038882 0.3588209
000130 b3 a1 80 3d a7 8a 2c 3d 01 e0 7f 3e 3f ee b1 3d
       0.06280842 0.042124417 0.24987794 0.0868802
000140 bb 14 ee bd d1 aa 2a 3e 0a ff 26 3d 7d b8 0f be
       -0.11625048 0.16666724 0.040770568 -0.1403522

fc3.weight f4 [10, 84]
000000 5d 52 8d 3d f8 09 61 bc 5e 2b 9f bd 0a ae 49 be
       0.06900475 -0.013735287 -0.077719435 -0.19695297
000010 d3 7d 01 be 5b 1a 5e bd aa 6c cb bb 4c 47 49 bd
       -0.12645654 -0.054224353 -0.006208022 -0.04914026
000020 d7 f1 f3 3d f9 b8 4c bd a1 55 01 3d 12 f7 25 be
       0.11911362 -0.04998109 0.031575803 -0.16207531
000030 d0 91 35 be 34 97 ab bd 1b 70 d9 3c 7b 45 f6 3d
       -0.17731404 -0.08378449 0.026542714 0.12024971
000040 00 03 cc 3d 99 72 c2 bc e0 42 04 3d b6 70 b5 bd
       0.0996151 -0.023736285 0.03229034 -0.088593885
000050 08 3a 24 3d 74 6c 90 bd 42 1b dc 3d 62 8d b3 bb
       0.040094405 -0.07051936 0.107473865 -0.0054795006
000060 f8 28 0d be 08 00 05 3d 42 a1 7a bc 89 82 71 bd
       -0.1378516 0.032470733 -0.015297236 -0.05896238
000070 40 7e c2 bd 25 d6 e2 3d ed cb 0a 3e a9 12 6c 3d
       -0.094967365 0.11076001 0.13554354 0.057634983
000080 97 89 16 be b5 fa f3 bb b2 49 10 bd 68 d5 90 bd
       -0.14700924 -0.007445658 -0.03522653 -0.07071954
000090 96 27 75 bd 0c f4 74 3d 4a 69 95 3d 7a 93 81 3c
       -0.059852205 0.059803054 0.07295473 0.015817393
0000a0 bc 38 75 bd 22 3b d6 3d 6a ec c0 3d 93 a6 81 bd
       -0.05986856 0.104604974 0.094200924 -0.063306
0000b0 f3 b4 ab be 12 4b 50 3e 0b 6d 38 3d 6a 25 93 3d
       -0.3353649 0.20341137 0.045025866 0.071848705
0000c0 f9 f1 37 3d a6 b5 8c bd 70 3b 0d 3e e9 64 19 3e
       0.044908497 -0.06870584 0.13792205 0.149799
0000d0 d1 c4 ad 3d b6 dc 6b bd 92 69 b6 3d 79 32 f5 3c
       0.084848054 -0.057583533 0.08906855 0.029931294
0000e0 c1 b6 b8 3c 71 72 fd bd 49 64 dc 3c 4e 96 27 3e
       0.022548081 -0.123753436 0.026903288 0.1636593
0000f0 c9 f9 d3 bd fc 95 eb 3d d1 de ad bd 6f 2f 9b bb
       -0.10350377 0.115032166 -0.084897645 -0.004735879
000100 59 01 a8 3d 3c 0b d2 bd b5 31 38 3e 17 1f 9c 3c
       0.08203382 -0.10256049 0.17987712 0.019057794
000110 1e 7c 00 3e 33 8e 2b 3e 7c 38 2c 3c 36 54 f2 3d
       0.12547347 0.16753463 0.010511514 0.11832468
000120 54 4d b1 bd b8 cb 4c 3c dc 3b b7 3d 00 ef 0f 3d
       -0.08657327 0.012499742 0.08946964 0.035140038
000130 ac 99 2a bd 86 76 4a 3c 08 ea ea 3d 23 e5 a2 3d
       -0.04165046 0.01235736 0.11470419 0.079538606
000140 67 af 55 3d 5b f5 03 be 11 df f6 3d d4 60 1e 3d
       0.05216923 -0.12886564 0.12054265 0.03866656
000150 c7 33 31 bc 29 9d dc bc 0c cc b3 bb 7c 1e 22 bc
       -0.010815567 -0.026930409 -0.005486971 -0.009894963
000160 8a ae 16 3d 96 72 41 be bd 61 f6 3d da ba 8e 3d
       0.036787547 -0.18891367 0.12030361 0.06969233
000170 cc 0a 7f bc a4 d8 18 3e 37 06 2c 3e 6b 37 a2 3d
       -0.015566539 0.14926392 0.16799246 0.079207264
000180 a1 e1 d0 bd aa 7f 9d 3d 2e c9 93 bd 39 e7 81 be
       -0.10199285 0.076903656 -0.07216106 -0.2537172
000190 20 a6 4b be b9 8e 39 be 9d 17 f1 bc 1a 08 8e 3d
       -0.1988759 -0.1812085 -0.029430205 0.06935139
0001a0 34 f0 3d 3d 71 72 73 bc 12 dd 05 3e a3 86 9b 3d
       0.046371654 -0.014858828 0.13072613 0.07594039
0001b0 bc 13 4c be 90 03 0f 3e 23 9e 6d 3c 53 c7 b9 bc
       -0.19929403 0.13966203 0.014503035 -0.022678053
0001c0 d9 0e 1a bd 3b cd 4e be 9c 1a f8 3d 0c fa cc bd
       -0.037611816 -0.20195477 0.1211445 -0.1000863
0001d0 91 6d 35 bd 50 0e 71 3c b7 38 21 be 6e a7 d5 3c
       -0.044293944 0.014712885 -0.15744291 0.026080813
0001e0 41 ee 63 bd 83 a3 0d be 57 c2 39 3e 9e 05 87 bd
       -0.05564714 -0.13831906 0.18140541 -0.06592868
0001f0 f0 20 d5 bd 55 3d 2a be da a9 c1 bd 05 70 61 bd
       -0.10406673 -0.16624959 -0.09456225 -0.05503847
000200 19 4c 4c be e9 4a d1 3d bb a8 e2 bd 26 53 09 bd
       -0.19950904 0.10219366 -0.11067339 -0.033526562
000210 89 45 67 3e f7 f3 6c 3b 25 06 81 bc 7d 87 2a be
       0.2258512 0.0036156157 -0.01575 -0.16653247
000220 96 55 30 3e c4 ae 54 3d 17 74 92 bd 28 82 ff 3d
       0.17220148 0.051924482 -0.07151049 0.12475997
000230 12 61 c5 bc 74 68 41 3e 61 9e 50 be 44 87 62 3e
       -0.024094138 0.18887502 -0.20372917 0.22121912
000240 ae bc fb 3d 95 a8 93 bd 5c 1e df bd fc da 5b bd
       0.12291847 -0.07209889 -0.108944625 -0.053675637
000250 96 38 83 3a a9 c8 03 3e c3 1e ce bc fe a4 25 3e
       0.0010011371 0.12869515 -0.025161153 0.16176221
000260 fa ae 3b 3d 5d c0 70 bd f4 c9 03 be 17 04 04 bd
       0.045821168 -0.058777202 -0.12870008 -0.032230463
000270 2f e8 d9 ba d5 34 88 bd b7 ea 17 3e 5e 6c d7 bd
       -0.0016624982 -0.06650702 0.1483563 -0.10518716
000280 76 65 9f 3d 6b a0 5b 3e 84 db 79 be 1c b1 ac bc
       0.07783024 0.21447913 -0.24400145 -0.021080546
000290 72 82 ee 3d 57 4a 42 bd 23 73 84 bd 87 a2 84 bd
       0.11645974 -0.047434177 -0.06467273 -0.06476312
0002a0 4a a8 05 3e 4c 71 b5 bd 50 f1 49 3d 4c 8f 52 bd
       0.13052478 -0.088595 0.0493024 -0.05140619
0002b0 29 a5 fd bc b5 b9 a7 3c 1d 71 f9 3c cd b3 ca 3d
       -0.030962544 0.020474294 0.030449444 0.098975755
0002c0 6d 89 97 bd ae ab 62 3c e1 5f 88 bd bf 15 14 3d
       -0.07399259 0.013834877 -0.066589125 0.03615355
0002d0 60 15 be 3d 8f cd 1c 3e cb 03 f0 bd ff 8a b8 3c
       0.09281421 0.1531279 -0.117194735 0.022527216
0002e0 22 1c 3b 3e bc 21 eb 3d 30 35 02 be f5 b2 9a bd
       0.1827245 0.11481044 -0.12715602 -0.075536646
0002f0 3c 8f 40 bd 47 31 fb 3d 12 6c 1b be 2d 78 0e 3e
       -0.0470116 0.12265258 -0.15177944 0.13913031
000300 25 ca 6b 3e 7a 6a 7a bd 65 e7 5c bc fd 1a 96 bd
       0.23026331 -0.0611367 -0.013482903 -0.07329366
000310 e1 83 4a 3e 49 7f 05 bd 47 db 3a bd bf 48 09 be
       0.1977687 -0.03259209 -0.045619275 -0.13406657
000320 fd 5e 8a bd 8c 25 cd 3b 5c 80 03 3e 85 60 af 39
       -0.06756399 0.0062605795 0.12841934 0.00033450514
000330 da 86 63 bd 16 32 a2 3c 8a a0 ee bd 2e b7 8f bd
       -0.055548526 0.019799273 -0.11651714 -0.07017361
000340 0a f7 2b 3e ca c4 2a 3e fe 4b c3 3d 42 e0 55 3d
       0.16793457 0.16676632 0.09535979 0.052215822
000350 9e 73 55 3d f5 48 e8 3d bf af 0c 3e 2d 99 a3 3c
       0.052112214 0.113420404 0.13738917 0.0199705
000360 bf 95 58 bc b4 93 5b bd 54 36 d8 3d 43 47 eb 3d
       -0.013219296 -0.053607658 0.10557237 0.114882015
000370 91 43 7c bd d8 0d 49 3d f3 5e 7b 3d e5 72 a6 bc
       -0.061587874 0.049085468 0.061369848 -0.020318458
000380 54 ad 18 3c 5b a7 20 bd 3a 02 c4 3d 4a 28 eb bd
       0.009318668 -0.039222103 0.09570737 -0.11482294
000390 42 0b b7 bd 67 58 01 3e 51 a1 09 3e 68 1f f5 bc
       -0.08937694 0.12631379 0.13440444 -0.029922202
0003a0 30 09 ed 3d 86 9e 94 bd d9 86 9d 3d 1c 77 1d 3d
       0.11574018 -0.072567984 0.07691736 0.03844367
0003b0 c3 b0 01 3e f9 63 a8 bd df 1a 14 bd 2a df cb 3d
       0.12665085 -0.08222193 -0.03615844 0.099546745
0003c0 d0 48 8f bb 3b 8c e4 3d e2 48 1a bd b0 67 0b 3e
       -0.0043726936 0.11159559 -0.037667163 0.13613772
0003d0 c9 36 d0 3d 15 5d 5b bd 37 a5 5b 3d ab b3 6c 3c
       0.101666994 -0.053555567 0.053624358 0.014447133
0003e0 95 1b a3 bd 2a cb 15 3e 8b 48 a0 3c 25 66 10 3e
       -0.07964245 0.14628282 0.019565841 0.14101465
0003f0 43 2b bb bd 6a d6 f4 3c cc d2 cb bd 52 14 07 3c
       -0.09139111 0.029887397 -0.09952316 0.008244591

fc3.bias f4 [10]
000000 09 32 15 bf 2a 0b 7e bf ac 03 aa bd 59 b2 3a 3f
       -0.5827947 -0.99235785 -0.083014816 0.72928387
000010 5c 04 86 3f 39 54 c1 3d 87 a1 9e be 8f 5f 33 be
       1.047008 0.09439892 -0.3098261 -0.17516921
000020 53 03 8b 3e 11 4e 3e bd
       0.27150974 -0.04646117

momentum_buffer f4 [6, 3, 5, 5]
000000 c4 55 01 3e 3a 58 97 3d 09 9a 8f 3d 59 86 26 3d
       0.12630373 0.07389875 0.07011802 0.040655468
000010 41 e4 11 3d 32 86 f1 3d 48 70 af 3d e7 e0 b1 3d
       0.03561807 0.11793174 0.08566338 0.08685475
000020 e1 62 6d 3d cd 38 6c 3d 61 fa bc 3d 3c 15 90 3d
       0.057955626 0.057671357 0.092274435 0.070353
000030 4c b3 8e 3d 17 be 42 3d 81 ac 34 3d 07 42 e8 3d
       0.06967792 0.047544565 0.044109825 0.11340719
000040 1f 25 b4 3d 53 18 bd 3d dc 6a cf 3d f2 ac c6 3d
       0.08796143 0.09233155 0.10127804 0.097009555
000050 a8 69 08 3e 5c 58 00 3e 18 04 10 3e d7 5e 15 3e
       0.13321555 0.12533706 0.14064062 0.1458696
000060 1c d0 08 3e 4c 65 d9 3d be 59 60 3d de 52 49 3d
       0.13360637 0.10615024 0.054773085 0.049151294
000070 e0 3c be 3c 1a 63 b3 3c ea f5 cd 3d 1e 73 85 3d
       0.023222387 0.021897841 0.1005667 0.065160975
000080 8e 26 82 3d b5 0b 17 3d 12 f7 39 3d 31 d3 a9 3d
       0.0635501 0.0368764 0.04540164 0.08292235
000090 ca 50 54 3d 5a 99 46 3d 04 e5 dd 3c 21 f9 00 3d
       0.05183486 0.04848609 0.027086742 0.031487588
0000a0 ae 3f e7 3d b5 53 a0 3d a4 7a 9c 3d eb 34 a7 3d
       0.11291443 0.07828466 0.07640579 0.0816439
0000b0 c5 28 a1 3d 65 18 17 3e 92 52 06 3e 54 1a 0d 3e
       0.07869104 0.147554 0.13117436 0.13779575
0000c0 b4 72 0a 3e 04 0f fa 3d c7 73 c8 3d c4 5a a2 3c
       0.13520318 0.12209895 0.09787708 0.019818671
0000d0 00 58 72 b8 8c 37 e7 bc f6 69 05 bd 2a 1e c9 3d
       -5.7779253e-05 -0.028224729 -0.032571755 0.098202065
0000e0 82 8e 09 3d 68 6c a3 3c d8 af 21 bc c4 e2 39 bc
       0.03358317 0.019949153 -0.009868585 -0.011345569
0000f0 e4 26 a0 3d f4 8a b4 3c 38 04 1b 3c 84 5b 7c bc
       0.07819918 0.022038914 0.009461455 -0.015402678
000100 4e e0 bf bc 55 05 de 3d 3c ff 4d 3d 0e 97 29 3d
       -0.023422386 0.10840861 0.05029224 0.041403823
000110 b2 38 37 3d 70 86 ec 3c e0 fa 11 3e c2 85 da 3d
       0.044731803 0.028872699 0.14255857 0.106700435
000120 e5 55 de 3d 8f 4c d5 3d ad d6 9a 3d aa 64 3d 3d
       0.10856227 0.10414993 0.075604774 0.04623858
000130 e4 b1 39 bc e2 dd 6e bd 58 7f e4 bc 80 33 18 bc
       -0.011333916 -0.058317073 -0.027892753 -0.009289622
000140 59 06 ba 3d 8e 79 6b 3d b8 7a 8b bc f8 ff 6c bb
       0.09083242 0.05748897 -0.01702629 -0.0036163311
000150 2c 50 30 3c 06 f9 a3 3d dc e5 a8 3d ec 20 21 3d
       0.010761302 0.08006482 0.08246967 0.039338037
000160 00 4a 37 3a 66 ed b9 3b 06 8f a9 3d 8a 10 82 3d
       0.0006991923 0.005674052 0.08279233 0.06350811
000170 3e 1a b4 3d 57 a9 80 3d a6 f6 6b 3d dc 45 a4 3d
       0.08794068 0.06282299 0.05760827 0.08021137
000180 0e 66 70 3d e9 70 80 3d 14 ba b5 3d de 15 b1 3d
       0.058691077 0.06271536 0.08873382 0.08646749
000190 c3 9c 5e 3d 00 6b 83 39 e7 1f 2e bd 26 bc 90 bc
       0.05434872 0.00025065988 -0.042510893 -0.017667841
0001a0 50 e2 1d bc f6 08 ce 3d 61 c3 94 3d a0 9e 02 3b
       -0.009636477 0.10060303 0.07263828 0.0019930974
0001b0 c8 4c 0f 3c 36 b8 4c 3c 5a d9 b3 3d e4 cd c4 3d
       0.008746333 0.012495091 0.08781691 0.09609583
0001c0 29 02 64 3d 74 76 3d 3c c7 cb 28 3c 5a 7d b3 3d
       0.055666123 0.011563886 0.010302491 0.08764143
0001d0 c5 a4 92 3d 2f 92 cd 3d 54 c5 ab 3d 35 86 94 3d
       0.071603335 0.10037648 0.08387247 0.072521605
0001e0 4d 10 a6 3d 58 18 91 3d 62 f2 95 3d b8 b1 de 3d
       0.08108578 0.07084721 0.073216215 0.10873741
0001f0 0a de d8 3d 82 b4 9a 3d 08 de ee 3c a8 c9 49 bc
       0.105892256 0.075539604 0.029158607 -0.012316145
000200 e4 61 6f 3c 84 dd 81 3c c6 48 e6 3d 2c 7d ae 3d
       0.014610741 0.015852697 0.11244349 0.085199684
000210 f4 56 c6 3c a1 79 0d 3d 3f 48 0b 3d 38 54 c7 3d
       0.024211384 0.034539822 0.034004446 0.0973286
000220 ca 1b d1 3d ec 43 86 3d 02 37 0d 3d ab aa 16 3d
       0.102103785 0.06555924 0.034476288 0.036783855
000230 1c ff a7 3d 5f 7f 84 3d 36 b0 bc 3d 98 85 b3 3d
       0.08202955 0.064696066 0.09213297 0.08765715
000240 06 ce b4 3d c0 47 8e 3d 38 19 52 3d e0 10 60 3d
       0.08828358 0.06947279 0.05129358 0.054703593
000250 99 cc c3 3d da 78 d8 3d 9d 4f cd bd 8f fe db bd
       0.09560508 0.105699256 -0.10024951 -0.107419126
000260 6a 18 a4 bd 6c 6f 86 bd a7 91 08 bd ac 52 36 be
       -0.08012469 -0.06564221 -0.03334203 -0.17804974
000270 fe 60 4a be 94 d9 2f be 0c 36 0b be 51 e8 c2 bd
       -0.19763562 -0.17172843 -0.13594836 -0.09516967
000280 29 d8 5e be 6d 24 8d be 82 c9 9c be 5e 69 68 be
       -0.21762146 -0.27566853 -0.30622488 -0.22696444
000290 d3 fc 35 be 46 78 6f be 5a 83 99 be b3 fb b9 be
       -0.17772226 -0.23385724 -0.29983026 -0.36324844
0002a0 c2 55 97 be 1e d0 80 be 61 20 3b be 02 96 7d be
       -0.29557616 -0.2515878 -0.1827407 -0.24764255
0002b0 b3 32 8f be ef 80 62 be d8 62 41 be 89 a1 57 bd
       -0.27968368 -0.22119497 -0.18885362 -0.052644286
0002c0 6a 1f 69 bd d1 b4 28 bd dd 86 e1 bc 60 63 80 3a
       -0.056914724 -0.041188065 -0.027530128 0.0009795241
0002d0 0c 1b e1 bd bf 53 02 be 63 96 e1 bd 3f 80 9b bd
       -0.10991487 -0.12727259 -0.11015012 -0.075928204
0002e0 c6 b0 14 bd 90 50 0e be 12 09 46 be 4c ca 6f be
       -0.036301397 -0.1389792 -0.19339398 -0.23417014
0002f0 1a 95 1e be 58 36 d3 bd ee 39 1c be d3 52 5d be
       -0.15486565 -0.103130996 -0.15256473 -0.21613626
000300 1c de 93 be 83 da 5d be 6a 0c 2b be 66 eb e0 bd
       -0.28880394 -0.21665387 -0.16703954 -0.10982399
000310 81 cb 2f be 69 42 57 be be c4 15 be 34 30 d7 bd
       -0.17167474 -0.21021427 -0.14625832 -0.10507241
000320 04 c8 bf bd 42 1f cc bd d4 67 a7 bd 2b 6d 97 bd
       -0.09364322 -0.099668995 -0.081741005 -0.07393869
000330 9b 6c 64 bd 54 50 01 be e9 00 14 be ed 8f 05 be
       -0.055767637 -0.12628299 -0.14453472 -0.13043185
000340 d6 4e d8 bd ac bf 9d bd 6a fc 0c be 98 6f 43 be
       -0.10561912 -0.07702574 -0.13768163 -0.19085538
000350 96 31 74 be 1c e2 32 be d2 20 05 be f8 e9 15 be
       -0.2384704 -0.17469066 -0.13000801 -0.14640033
000360 58 60 55 be 1a 9c 96 be 8d 42 73 be 73 6c 3b be
       -0.20837533 -0.2941597 -0.23755856 -0.18303089
000370 f0 c3 dc bd 28 95 31 be 23 f7 5f be 85 b0 26 be
       -0.107795596 -0.17342055 -0.21871619 -0.16278274
000380 70 6b eb bd df 22 39 be 7a 67 20 be 1d b9 3b be
       -0.114951015 -0.18079709 -0.15664473 -0.18332334
000390 c6 dc 50 be 33 a2 45 be d0 80 1c be 4e c6 17 be
       -0.20396718 -0.19300155 -0.15283513 -0.14821741
0003a0 cf b1 34 be 2a dd 1a be f4 02 17 be 1e f9 35 be
       -0.17645954 -0.1512343 -0.1474722 -0.17770812
0003b0 83 c4 35 be 06 9f 3d be 04 df 12 be fb 43 18 be
       -0.17750745 -0.18517694 -0.14342886 -0.14869682
0003c0 2e 73 3e be bd 13 05 be 85 6b d1 bd d9 b8 d2 bd
       -0.18598625 -0.12995811 -0.10225586 -0.10289163
0003d0 dc d3 f6 bd 06 9a 0a be 8a fc b0 bd 62 18 c7 bd
       -0.12052128 -0.13535318 -0.08641918 -0.097214475
0003e0 58 41 db bd c8 a1 fa bd 52 9a f3 bd dc 70 d2 bd
       -0.10705823 -0.122378886 -0.11894669 -0.102754325
0003f0 88 86 03 be 47 9c 1f be 5a b5 15 be d7 d7 a8 bd
       -0.12844288 -0.15586959 -0.14619961 -0.08244293

momentum_buffer f4 [6]
000000 0c 41 87 bd c9 d0 1f be 3f 99 24 3e 62 8d b2 bd
       -0.066042036 -0.15606989 0.16074084 -0.08718373
000010 6a 75 f5 3d 76 0c a0 3d
       0.119852856 0.07814877
